ai_optimizer.onnx (onnx, 1386 bytes, 2 tensors)

conv.weight f4 [2, 3, 3, 3]
000000 60 96 73 bc c0 96 2f 3c bb c4 c6 bd e0 83 19 3c
       -0.014867395 0.010717094 -0.09705492 0.00936982
000010 92 1e ec 3d ee 69 ce 3d 24 78 77 3d fa cc ba 3d
       0.11529268 0.10078798 0.06041731 0.091211274
000020 b3 7d 04 be b7 3b 2e 3e e1 5a d2 bd 5a 4d c7 3d
       -0.12938575 0.17014967 -0.1027124 0.097315505
000030 28 01 89 3c ed c2 14 3e 83 55 43 be 6d a6 de bd
       0.016724184 0.14527483 -0.19075589 -0.10871587
000040 8d 67 ca bd a4 8f 40 bd 7e 1f e4 3d cb e9 40 3e
       -0.09883032 -0.047011986 0.11138819 0.18839185
000050 79 19 e6 bd af f6 d6 bd 2e 14 8e 3d 52 65 92 bd
       -0.11235327 -0.1049627 0.06937443 -0.071482316
000060 f8 ba d5 3c 40 f5 26 bc c5 3f b2 bd 8e 03 04 be
       0.02609013 -0.010190308 -0.08703569 -0.12891981
000070 bd 7e 17 3e 06 b7 22 be 40 6d 38 bd f8 26 1c be
       0.1479444 -0.1589013 -0.045026064 -0.1524924
000080 16 a2 1a be c1 64 28 3e 63 cb 3f 3e c0 ae 5e 3b
       -0.15100893 0.16444685 0.1872993 0.003397867
000090 c4 89 cb bd 11 c6 11 3e a0 04 a7 bb a4 6d 38 bd
       -0.09938386 0.14235713 -0.005096987 -0.045026436
0000a0 50 4c df 3c bb 30 d7 bd f3 05 1d 3e 50 50 da bc
       0.027258068 -0.105073415 0.153343 -0.026649624
0000b0 5d 7e 14 3e c4 e8 42 be e1 0d e8 bd a4 37 27 3d
       0.14501329 -0.19034106 -0.11330772 0.040824547
0000c0 d0 a9 65 bc 10 22 05 bc e9 33 32 be ea 1f a2 3d
       -0.014017537 -0.008125797 -0.17402615 0.079162434
0000d0 08 29 bf 3c 05 08 a9 bd
       0.023334995 -0.08253483

conv.bias f4 [2]
000000 00 56 39 bd 3b b5 3b 3e
       -0.04524803 0.18330853
